JerryProject_SnorePrediction/AndroidApp_SnorePrediction/20200817_JerrySnoreDetection/src/main/assets/snore_predict.tflite (tflite, 68736 bytes, 4 tensors)

StatefulPartitionedCall/sequential_11/dense_22/BiasAdd/ReadVariableOp f4 [128]
0	0x3e256c83	0.16154675
1	0x3ac87cf0	0.0015296023
2	0x3e09bbe5	0.13450582
3	0x3c652068	0.013984777
4	0x3dc50f86	0.096221015
5	0xbe049fbf	-0.12951563
6	0x3dca5c16	0.09880845
7	0x3e0efdba	0.13963977
8	0x3e01bab1	0.12668873
9	0x3df3c9c6	0.119037196
10	0x3e19a805	0.150055
11	0xbd2f54ce	-0.042805485
12	0xbdc2094b	-0.09474429
13	0xbdfd5f8f	-0.12371742
14	0xbdd84a78	-0.10561079
15	0x3e3e7eb2	0.18603018
16	0x3ddaa613	0.106762074
17	0x3c040f06	0.0080602225
18	0xbe0e76f5	-0.13912566
19	0x3dc2039c	0.09473345
20	0x3a9e9578	0.0012098989
21	0x3b06bfd5	0.0020561118
22	0xbe0a5bc4	-0.13511568
23	0x3bbfe8bb	0.005856601
24	0xbe26f6d8	-0.16305101
25	0xbdfb9c6e	-0.12285696
26	0xbda26b06	-0.07930569
27	0xbe1a44be	-0.15065286
28	0xbe4ba992	-0.19888905
29	0x3dfe5298	0.12418097
30	0xbe219781	-0.1578045
31	0xbcd42b66	-0.0258996
32	0x3e2a33e7	0.16621362
33	0xbe244bd5	-0.16044553
34	0x3d72a184	0.059236065
35	0x3db6ec0f	0.08931743
36	0x3e15889e	0.14602897
37	0x3ceb5848	0.02872862
38	0x3b9111e1	0.00442718
39	0xbe0ebeb9	-0.13939942
40	0xbe0c74ba	-0.13716403
41	0xbe2d436c	-0.1692025
42	0x3db37ece	0.087644204
43	0xbc28b81e	-0.010297803
44	0xbad99a13	-0.0016601704
45	0x3ded39a1	0.115832575
46	0x3dcf0bf0	0.10109699
47	0xbd8da08f	-0.0691539
48	0x3e0a3621	0.13497211
49	0xbb89c37c	-0.0042042118
50	0xbb1a75bb	-0.0023568708
51	0x3d6a355c	0.057179794
52	0xbe1c732e	-0.15278313
53	0x3e2b808a	0.16748253
54	0xbdb719d0	-0.0894047
55	0xbe074ccb	-0.13212888
56	0xbd9481ec	-0.07251343
57	0xbdf96161	-0.12176777
58	0x3e32b15d	0.17450471
59	0x3df6716a	0.12033351
60	0xbb58ac40	-0.0033061653
61	0xbba6f29a	-0.0050948383
62	0x3befd27e	0.007318794
63	0xbe058ba6	-0.13041553
64	0xbdef9d8d	-0.11699972
65	0x3e167ca0	0.14695978
66	0xbe16784f	-0.14694332
67	0xbc377697	-0.011197708
68	0xbe1c25e4	-0.15248829
69	0xbdc8f9f6	-0.09813301
70	0x3d68cc8a	0.05683569
71	0x3d39b8d3	0.045342278
72	0xbdaa3208	-0.08310324
73	0x3de1649a	0.11005516
74	0x3dc86b9e	0.09786151
75	0x3dd9354a	0.10605867
76	0xbe525e1c	-0.20543712
77	0x3d73ade7	0.059492018
78	0x3e1e2100	0.15442276
79	0xbe2f9ac8	-0.17148888
80	0x3d93c8f6	0.07216065
81	0x3de848d4	0.11342016
82	0x3dbf5029	0.09341461
83	0x3e2d45f6	0.16921219
84	0x3e225255	0.1585172
85	0xbdf64448	-0.12024742
86	0x3de9d31f	0.11417221
87	0xbd9ac7a4	-0.0755761
88	0xbb7209ae	-0.003693204
89	0x3dc6dc08	0.097099364
90	0x3db5df07	0.0888043
91	0xbe3e82bf	-0.18604563
92	0xbdb5863a	-0.08863492
93	0x3c142217	0.009041331
94	0xbdbf0e47	-0.09328895
95	0x3d795604	0.060873047
96	0x3da17ea2	0.078854814
97	0xbe1aea5b	-0.15128462
98	0xbd8eeab4	-0.0697836
99	0x3e2519d9	0.16123141
100	0xbe11ab10	-0.14225411
101	0x3e05f779	0.13082685
102	0x3ddf56ac	0.10905203
103	0xbe12efe1	-0.14349319
104	0xbe0a31f4	-0.13495618
105	0x3e28979e	0.16464087
106	0xbe00602d	-0.12536688
107	0xbe2b25a7	-0.16713582
108	0xbdf051bb	-0.11734339
109	0x3d5dab2f	0.05411833
110	0xbdce9c97	-0.10088461
111	0x3e09a0ad	0.13440199
112	0xbe10a02c	-0.141236
113	0x3e1df612	0.154259
114	0x3dbb0aa4	0.09132889
115	0x3defc779	0.11707968
116	0xbdce41c3	-0.10071137
117	0xbe11f980	-0.14255333
118	0xbdff0353	-0.12451806
119	0x3e08f04b	0.13372914
120	0x3d080bc3	0.03321434
121	0x3e2c768a	0.16842094
122	0xbe08a29f	-0.13343285
123	0x3de82339	0.11334843
124	0x3dfecf7a	0.12441917
125	0xbdce6d44	-0.100794345
126	0x3de9844d	0.114021875
127	0xbde6a764	-0.11262396

StatefulPartitionedCall/sequential_11/dense_23/BiasAdd/ReadVariableOp f4 [2]
0	0x3d7c41c5	0.06158616
1	0xbd7c432a	-0.06158749

sequential_11/dense_22/MatMul;StatefulPartitionedCall/sequential_11/dense_22/MatMul f4 [128, 128]
0	0xbf0f4b91	-0.5597468
1	0xbf369355	-0.7131856
2	0x3d2be4e1	0.041966323
3	0xbf1c4cc4	-0.61054635
4	0x3ecf19fb	0.4044951
5	0xbe811599	-0.2521179
6	0xbdbf79fc	-0.093494385
7	0xbdd10e7e	-0.10207842
8	0x3e8eaaa3	0.2786456
9	0xbda8d34d	-0.082434274
10	0xbeb5c73e	-0.35503572
11	0xbe95b33a	-0.29238302
12	0x3d0fb7cb	0.035087388
13	0x3eb70e12	0.35752922
14	0x3d87685e	0.06611703
15	0x3d167c00	0.03673935
16	0x3e6818f1	0.22665764
17	0xbe6c0f64	-0.23052746
18	0xbdb7f526	-0.08982305
19	0x3e75f852	0.24020508
20	0x3d6bb981	0.057549957
21	0xbe69210d	-0.22766514
22	0xbe92f430	-0.28701925
23	0x3e31e9a5	0.17374285
24	0xbe2a7f9c	-0.16650242
25	0x3d9db8f7	0.07701295
26	0x3e82a842	0.25518996
27	0xb964d694	-0.00021823711
28	0x3dd3493a	0.10316701
29	0x3eaaca4b	0.33357462
30	0xbe153ffb	-0.14575188
31	0xbe299294	-0.16559821
32	0x3e22e6be	0.15908334
33	0x3cd9f948	0.026608124
34	0x3c6c2d10	0.014415041
35	0xbdb7865b	-0.08961173
36	0x3e3dd879	0.18539609
37	0xbd5d824e	-0.054079346
38	0xbe4b60ed	-0.19861193
39	0x3dff044a	0.1245199
40	0xbd96aced	-0.07357202
41	0x3cded6d4	0.027202047
42	0x3e514df8	0.20439899
43	0x3c706ed8	0.014674865
44	0xbd49fd8b	-0.049314063
45	0xbdc4cc6f	-0.09609305
46	0x3dbbb82e	0.09165989
47	0xbddd754e	-0.1081339
48	0x3e4e2617	0.20131718
49	0xbd5eaa80	-0.05436182
50	0xbbc7eeaa	-0.006101449
51	0x3e168a28	0.1470114
52	0xbe120373	-0.14259128
53	0xbd8f5dac	-0.07000288
54	0xbdf3bd54	-0.11901346
55	0x3d28319c	0.041062936
56	0x3dd9fcc6	0.10643916
57	0x3ca37f20	0.019958079
58	0x3dc9ed0f	0.098596685
59	0x3c726b2e	0.014796061
60	0x3c620cff	0.013797044
61	0x3e36e916	0.17862353
62	0x3d443094	0.04789789
63	0xbd48b8ee	-0.049004488
64	0xbdb85e3b	-0.09002348
65	0x3dc16447	0.094429545
66	0x3dd8caee	0.10585581
67	0xbe0d5133	-0.13800506
68	0xbdb139b7	-0.08653586
69	0xbb976d96	-0.004621218
70	0x3e4562ba	0.19275942
71	0xbdee92a5	-0.11649064
72	0xbd7bd407	-0.061481502
73	0x3e041191	0.12897326
74	0xbdd6332f	-0.10458981
75	0x3df1e40a	0.11811073
76	0xbc9024a1	-0.017595591
77	0x3e350bf8	0.17680347
78	0xbe18ce8e	-0.14922544
79	0x3d488286	0.0489526
80	0xbc54c01d	-0.0129852565
81	0x3d403bc1	0.046931986
82	0xbe025bc8	-0.12730324
83	0xbde683e5	-0.11255626
84	0xbd604906	-0.05475714
85	0xbb05cc30	-0.0020415895
86	0xbd18ec6c	-0.037334844
87	0xbda511bc	-0.08060023
88	0x3b9550bf	0.004556745
89	0x3e1deaba	0.15421572
90	0x3c777943	0.015104595
91	0xbd225ef2	-0.03964133
92	0xbd709daa	-0.05874411
93	0xbd4a052b	-0.049321335
94	0x3d341dd4	0.04397376
95	0xbe341f3a	-0.17590037
96	0xbd16f608	-0.036855727
97	0x3dbcf50c	0.092264265
98	0xbda0d9cb	-0.07854041
99	0x3e6a4797	0.22878872
100	0xbdc5a4fc	-0.09650609
101	0xbaee1077	-0.0018162866
102	0xbe07e49e	-0.13270804
103	0xbcaec018	-0.021331832
104	0xbd592bb5	-0.053020198
105	0x3e3501d9	0.17676486
106	0xbe063e71	-0.13109757
107	0xbd7f313d	-0.062302817
108	0xbe34dd7b	-0.17662613
109	0x3d463417	0.04838952
110	0xbd34bcd1	-0.04412538
111	0xbd2c3d57	-0.042050686
112	0xbc29693a	-0.010340029
113	0x3de98e07	0.11404043
114	0x3d47ecbc	0.048809752
115	0x3cf3b64a	0.029750008
116	0xbdb31429	-0.087440796
117	0xbe061f74	-0.13097936
118	0x3dd12a92	0.10213198
119	0xbdddf503	-0.10837748
120	0xbe1c7792	-0.15279987
121	0x3deaa69a	0.11457558
122	0xbc6c4144	-0.014419857
123	0x3d7d3f19	0.061827753
124	0xbd656465	-0.056003947
125	0xbcaa80eb	-0.020813426
126	0x3d5592db	0.052142005
127	0x3daeffa2	0.08544852
128	0xbf65d535	-0.89778453
129	0xbf63a68a	-0.88925993
130	0x3d33401e	0.04376232
131	0xbf7bee9c	-0.98410964
132	0x3f39894d	0.7247513
133	0xbed14a46	-0.4087698
134	0xbe08a4c7	-0.13344108
135	0xbec932c5	-0.39296547
136	0x3e906581	0.2820244
137	0xbc6f6a52	-0.014612751
138	0xbec49162	-0.38392168
139	0xbf338e82	-0.70139325
140	0x3e114617	0.14186893
141	0x3ed5fddb	0.4179524
142	0xbd8ea991	-0.06965936
143	0x3d6c8933	0.05774803
144	0x3e1cc3c7	0.15309058
145	0xbeec03e1	-0.4609671
146	0x3ddb57e6	0.10710125
147	0x3efa7e97	0.48924705
148	0x3e042ebb	0.12908451
149	0xbf1e61a7	-0.61867756
150	0xbe5bcce2	-0.21464875
151	0x3e9937bf	0.29925343
152	0xbf035e61	-0.51315886
153	0x3e309394	0.17243797
154	0x3e281559	0.16414393
155	0xbd4a5816	-0.04940041
156	0xbdc630b6	-0.096772596
157	0x3edbd200	0.42933655
158	0xbe821ae0	-0.2541113
159	0xbe5175e2	-0.20455125
160	0x3d4d153b	0.050069075
161	0x3d5c5e95	0.053801138
162	0x3d57f69e	0.052725427
163	0xbd8a9686	-0.06766991
164	0x3e59a718	0.21255147
165	0x3db83647	0.089947276
166	0xbda16009	-0.078796454
167	0xbe14844f	-0.14503597
168	0x3d656587	0.056005027
169	0x3e53bf7d	0.20678516
170	0x3e1df724	0.15426308
171	0x3eb357cb	0.35027918
172	0x3cfe269c	0.03102427
173	0x3e189e5c	0.1490416
174	0xbce064e3	-0.027391857
175	0xbe9d0459	-0.3066738
176	0x3e6b0a5b	0.22953169
177	0xbce78ec2	-0.028266314
178	0xbe444678	-0.19167507
179	0xbd1d8f8c	-0.038466975
180	0xbe4d856d	-0.20070429
181	0x3d7d1921	0.061791543
182	0xbe3623cc	-0.17787093
183	0xbda71416	-0.08158128
184	0x3e5787fa	0.21047965
185	0x3d0a779c	0.033805475
186	0x3d26fa23	0.040765893
187	0x3d793bec	0.06084816
188	0xbc4bb306	-0.012432819
189	0x3e19f244	0.15033823
190	0xbd42b1de	-0.04753291
191	0xbde18481	-0.11011601
192	0x3e0b5e56	0.13610205
193	0x3d9e26e8	0.077222645
194	0xbcb99394	-0.022653379
195	0xbd419b12	-0.047267027
196	0xbd615918	-0.055016607
197	0xbd32e382	-0.043674
198	0x3e778403	0.24171452
199	0xbcda2c3c	-0.02663242
200	0x3dd7aa03	0.10530474
201	0x3e349efd	0.17638774
202	0xbdd73f2e	-0.105100974
203	0x3e3ef287	0.18647204
204	0xbe5f1efa	-0.2178916
205	0x3e7b0f39	0.24517526
206	0xbdbac017	-0.091186695
207	0x3d8503ee	0.0649489
208	0xbcc684d6	-0.024233263
209	0xbdef9b34	-0.116995245
210	0x3ac4fa70	0.001502825
211	0xbe200ec3	-0.15630631
212	0xbd992a87	-0.074788146
213	0xbd2a6e1b	-0.04160891
214	0x3c658c43	0.014010492
215	0x3ca27e22	0.019835535
216	0x3d6f6baf	0.058452304
217	0x3e136c95	0.1439689
218	0xbd6a310f	-0.057175692
219	0x3e74cb38	0.23905647
220	0xbe468712	-0.19387463
221	0x3c6989aa	0.014254013
222	0xbd8e1024	-0.06936672
223	0xbd662e21	-0.056196336
224	0xbb863e3c	-0.0040967744
225	0xbd413339	-0.04716799
226	0x3d23ca01	0.039987568
227	0x3e81acb7	0.25327083
228	0x3de66b64	0.11250952
229	0x3c8fbac2	0.017545108
230	0xbd888bf8	-0.06667322
231	0xbda3a039	-0.079895444
232	0xbe13355c	-0.14375824
233	0x3d3f0d98	0.046643823
234	0xbd58ffee	-0.05297845
235	0x3cf8a943	0.030354148
236	0xbda5675d	-0.080763556
237	0x3ddf5c39	0.10906262
238	0x3d439e95	0.047758657
239	0x3dc50de2	0.096217886
240	0x3e08cd54	0.13359576
241	0xbc41fa34	-0.011839438
242	0xbcc6b83b	-0.02425777
243	0x3dcbcd78	0.099512994
244	0x3cefbf36	0.029265981
245	0x3e0ceead	0.13762923
246	0xbd61c2db	-0.05511747
247	0xbbbc932a	-0.005754848
248	0xbde5edf8	-0.112270296
249	0x3e20925a	0.15680829
250	0x3ad7ee86	0.0016474284
251	0x3e0ed65f	0.13948964
252	0xbe57ff15	-0.210934
253	0xbc798218	-0.015228771
254	0xbdd5daf0	-0.1044215
255	0x3da01f63	0.078184865

sequential_11/dense_23/MatMul;StatefulPartitionedCall/sequential_11/dense_23/MatMul f4 [2, 128]
0	0xbf0c861b	-0.5489213
1	0xbf48d2c5	-0.7844661
2	0xbe82f0cf	-0.25574347
3	0x3f2f23c6	0.6841396
4	0xbe2ca8c4	-0.16861254
5	0x3edf5d64	0.4362594
6	0xbeb509db	-0.35359082
7	0xbeac862f	-0.33696124
8	0xbf0a6fdb	-0.5407693
9	0xbed80317	-0.42189857
10	0xbef30050	-0.47461176
11	0x3f129a7a	0.5726696
12	0x3ea026cd	0.31279603
13	0x3ee6518a	0.44984084
14	0x3e13f11d	0.14447446
15	0xbeb9d29e	-0.362935
16	0xbe93f54b	-0.2889808
17	0xbf245d9a	-0.64205325
18	0x3e651996	0.22373042
19	0xbea7d091	-0.3277631
20	0xbf312f7a	-0.6921307
21	0xbf0b5889	-0.5443197
22	0x3ed24b04	0.41072857
23	0xbf424061	-0.75879484
24	0x3e81a577	0.25321552
25	0x3ebe3cbb	0.3715571
26	0x3ee56db2	0.44810253
27	0x3e8ddf22	0.277093
28	0x3eb0efdb	0.34557995
29	0xbeef413d	-0.4672946
30	0x3e350f8d	0.17681713
31	0x3f2aa35e	0.6665553
32	0xbf0a31f8	-0.53982496
33	0x3ee6f34e	0.45107502
34	0xbe19c379	-0.15015973
35	0xbebac288	-0.3647654
36	0xbf116449	-0.5679365
37	0xbed07528	-0.40714383
38	0x3f2121d1	0.62942225
39	0x3f1ffd73	0.6249611
40	0x3ea4cfbd	0.32189742
41	0x3ecbba50	0.39790583
42	0xbecab421	-0.39590552
43	0x3f169690	0.5882349
44	0xbf23585a	-0.6380669
45	0xbed559f0	-0.4167018
46	0xbf055734	-0.52086186
47	0x3f1ce24f	0.6128282
48	0xbf3bfff1	-0.7343741
49	0xbf069097	-0.52564377
50	0xbea500cf	-0.3222718
51	0xbf1a5cb8	-0.6029773
52	0x3ecf67e0	0.40508938
53	0xbee86bfa	-0.4539488
54	0x3ec4208b	0.38306078
55	0x3e4d61b5	0.20056804
56	0x3eb6db38	0.35714126
57	0x3e9a2895	0.30109087
58	0xbea7d3f1	-0.32778886
59	0xbf1ccc69	-0.61249405
60	0x3f42fa32	0.7616302
61	0xbed30f43	-0.4122258
62	0x3f54a70f	0.8306741
63	0x3ecf18b4	0.40448534
64	0x3e477f38	0.19482124
65	0xbf094222	-0.53616536
66	0x3edf3098	0.43591762
67	0xbf0da30e	-0.55326927
68	0x3f12858b	0.5723502
69	0x3ebe4899	0.37164763
70	0xbf2d3086	-0.67652166
71	0xbd5c7e24	-0.053831235
72	0x3ded22fd	0.11578939
73	0xbf05b5f7	-0.5223078
74	0xbf039909	-0.5140539
75	0xbeec009d	-0.46094218
76	0x3e8919b1	0.26777413
77	0xbea76764	-0.32696068
78	0xbefbf11f	-0.49207398
79	0x3e77c5db	0.2419657
80	0xbeaca800	-0.33721924
81	0xbeafb24f	-0.34315726
82	0xbec01f82	-0.3752404
83	0xbed3690f	-0.4129109
84	0xbf0c1b76	-0.547294
85	0x3eead150	0.45862818
86	0xbeb64070	-0.35596037
87	0x3ea98d03	0.33115396
88	0xbf289db9	-0.65865666
89	0xbf1d223f	-0.6138038
90	0xbea62933	-0.32453308
91	0x3f02d799	0.51110226
92	0x3ef8d4b9	0.48599795
93	0x3f5c3e74	0.86032796
94	0x3e8a61cb	0.27027735
95	0xbe9a8f53	-0.30187473
96	0xbea1b379	-0.3158224
97	0x3edab45a	0.42715722
98	0x3ed71707	0.42009756
99	0xbf0e5596	-0.55599344
100	0x3ecb1ff0	0.39672804
101	0xbe6b41d4	-0.2297433
102	0xbf038f37	-0.51390404
103	0x3e7ed1da	0.2488474
104	0x3edf3784	0.43597043
105	0xbf21a750	-0.63145924
106	0x3f022941	0.508442
107	0x3f12b546	0.5730785
108	0x3f5471af	0.8298597
109	0xbe00b91b	-0.12570612
110	0x3e5918bd	0.21200843
111	0xbf249b78	-0.64299726
112	0x3ef559b1	0.47919992
113	0xbe826f2d	-0.25475445
114	0xbeba6458	-0.3640468
115	0xbf0f1cd8	-0.5590339
116	0x3f0da146	0.5532421
117	0x3eac95c8	0.33708024
118	0x3f06d183	0.5266344
119	0xbeebfbc4	-0.4609052
120	0xbea42f5f	-0.3206739
121	0xbe6a56a1	-0.22884609
122	0x3ea50e97	0.32237694
123	0xbec69688	-0.3878672
124	0xbf07114e	-0.5276078
125	0x3ebb5624	0.36589158
126	0xbf083d50	-0.53218555
127	0x3f13f405	0.5779422
128	0x3f2d40fc	0.67677283
129	0x3f3c0c37	0.7345614
130	0x3f261ddb	0.64889306
131	0xbf48b476	-0.7840036
132	0x3ecf6b6d	0.40511647
133	0xbee44b1c	-0.44588554
134	0x3eddc9e5	0.43318096
135	0x3ec4ef9d	0.3846406
136	0x3eeaf24f	0.45887992
137	0x3e357da3	0.17723708
138	0x3ee99eee	0.45629066
139	0xbf22becd	-0.6357239
140	0xbec4b3c7	-0.3841841
141	0xbe71a808	-0.23599255
142	0xbef38987	-0.47565863
143	0x3ee9ba8f	0.45650145
144	0x3eab43b5	0.33450094
145	0x3f23af47	0.63939327
146	0xbee37f86	-0.4443323
147	0x3ec1e45e	0.37869543
148	0x3ede36d9	0.4340122
149	0x3f3d5167	0.73952335
150	0xbf134e5e	-0.57541454
151	0x3f2fe3fd	0.6870726
152	0xbef40f7a	-0.47668058
153	0xbec1e479	-0.37869623
154	0xbf48f8e6	-0.7850479
155	0xbe9de0f7	-0.30835697
156	0xbf08cb3f	-0.5343513
157	0x3eefc60d	0.46830788
158	0xbe9fe4f2	-0.3122936
159	0xbf3e5ad5	-0.7435735
160	0x3ed52f13	0.41637477
161	0xbf1002e5	-0.56254417
162	0x3e38b8db	0.18039267
163	0x3eead289	0.4586375
164	0x3ef02ffa	0.46911603
165	0x3d692e14	0.05692871
166	0xbf7345a1	-0.9502812
167	0xbf05320b	-0.52029485
168	0xbf2b5716	-0.6692976
169	0xbef18caf	-0.47177646
170	0x3ea4c1e4	0.32179177
171	0xbf667761	-0.9002591
172	0x3f0c8946	0.5489696
173	0x3ec88aa0	0.39168262
174	0x3ed34232	0.4126144
175	0xbe6d0c94	-0.2314933
176	0x3f2d940c	0.67804027
177	0x3f2c65f5	0.67343074
178	0x3f22e092	0.6362392
179	0x3f0aca0d	0.54214555
180	0xbef63549	-0.48087528
181	0x3ee4c917	0.4468467
182	0xbe938d8a	-0.28818923
183	0xbf0b32c4	-0.5437434
184	0xbedea630	-0.43486166
185	0xbeaf9f97	-0.34301445
186	0x3f09eb31	0.538745
187	0x3ecb9821	0.39764503
188	0xbf21aa59	-0.63150555
189	0x3ed1e39f	0.40993974
190	0xbf754fb1	-0.95824724
191	0xbf11b7ba	-0.5692097
192	0xbed064e6	-0.4070198
193	0x3ebdf404	0.37100232
194	0xbf174061	-0.5908261
195	0x3f08d4d8	0.53449774
196	0xbf16977e	-0.5882491
197	0xbed778a5	-0.42084232
198	0x3f3a7a96	0.728433
199	0x3eb864ac	0.36014307
200	0xbee12791	-0.439755
201	0x3e85fab1	0.26167825
202	0x3ed1cf32	0.4097839
203	0x3edb07d0	0.42779398
204	0xbf0b23ce	-0.5435151
205	0x3ec4a391	0.3840604
206	0x3f18aaba	0.5963551
207	0xbeaa3ecf	-0.33251044
208	0x3eb5ebe9	0.35531548
209	0x3ee1a3e8	0.44070363
210	0x3e6d2240	0.23157597
211	0x3ef9f2c9	0.48818043
212	0x3f24480d	0.6417244
213	0xbeb89547	-0.3605139
214	0x3efdcfb1	0.49572518
215	0xbed2066c	-0.41020525
216	0x3f4b0b79	0.7931438
217	0x3f144c6b	0.57929105
218	0x3e96672d	0.29375592
219	0xbec241ab	-0.37940726
220	0xbea20fc3	-0.3165265
221	0xbf68998a	-0.9085928
222	0xbefcdd28	-0.4938748
223	0x3eadb0ca	0.33923942
224	0x3e12b2fa	0.14326087
225	0xbefa7c2b	-0.48922858
226	0xbee4f58f	-0.44718596
227	0x3f0030b5	0.5007432
228	0xbf0d9801	-0.55310065
229	0x3eff7f9a	0.4990204
230	0x3f2d1e9c	0.6762483
231	0xbf1d1a30	-0.61368084
232	0xbe7b3b41	-0.24534322
233	0x3ee30f2d	0.44347516
234	0xbed02cb7	-0.40659115
235	0xbed79ed1	-0.42113355
236	0xbf099773	-0.5374672
237	0x3e7bb6f5	0.24581511
238	0xbeee0fad	-0.46496335
239	0x3eeda772	0.46416813
240	0xbedfd41a	-0.43716508
241	0x3e96276c	0.29326952
242	0x3e410590	0.18849778
243	0x3f0ab534	0.54182744
244	0xbe85dace	-0.26143497
245	0xbe835448	-0.2565024
246	0xbe9acabc	-0.302328
247	0x3e8f2f21	0.27965644
248	0x3db9c6f4	0.090711504
249	0x3f175634	0.5911591
250	0xbf140f67	-0.57836
251	0x3e85d864	0.26141655
252	0x3eae03a4	0.33987153
253	0xbed3940b	-0.41323885
254	0x3ef149a7	0.47126505
255	0xbe94a053	-0.29028568
