snore/AndroidApp_SnoreDetection/20200724_JerrySnoreDetection/src/main/assets/snore_predict.tflite (tflite, 68736 bytes, 4 tensors)

StatefulPartitionedCall/sequential_14/dense_29/BiasAdd/ReadVariableOp f4 [128]
00000000: aec9 93bc 82f3 d5bc 4116 b53c 9c01 01bd
00000010: 0d18 5b3c a328 8ebc c010 39bd 866e 4e3c
00000020: 7cda c63c 725c 15bd 614e 9abc 7c9f d3bc
00000030: 9cff cc3c 32ab 853c d4e5 c5bc f115 24bc
00000040: 754a 4f3c 26e2 7f3c 5fc2 093d 0802 c03c
00000050: 5e8d 093d ec4f 833c fd37 a93c b2a9 a43a
00000060: eb05 a13b d004 4e3c 7fab babb 0ff6 57bb
00000070: 712d a4bb f1a2 b33c 32b4 b03c f6aa d5bc
00000080: cca5 e83c d489 0e3d a390 0abd 6b77 c5bb
00000090: 81c6 ad3c 4c0a f7bb d570 c7bc 0fda db3c
000000a0: 722b 313c fe04 8a3c 672f ae3b c9bb dcbc
000000b0: a096 013a 4977 c1bc cfb4 fdbb 408f 90bc
000000c0: 7d5b 4abc fb50 40bc 93f4 133c b2e1 0bbd
000000d0: bf0e 0dbd a240 8e3c b36a 82bc aec5 0dbd
000000e0: f3d7 ab3c e3dd cd3c 56b6 c93c 8ff3 bc3c
000000f0: b24d 33bc 32b9 babc 43a3 8dbc aea7 263c
00000100: dfa0 c83c c0e2 893c daef 03bd 856e d53b
00000110: acec 97bc e2fc f9bb 0471 a73c ea77 06bd
00000120: 3769 b53c ac72 723c dc2c a8bc e8ce 9dbc
00000130: fc50 9f3c 21db a23c aae5 d7bc dd4d b13c
00000140: db3a 0cbd 6dd9 0cbd 4f8b 863c 0014 0f3b
00000150: 0761 643b c1c7 373a 807b 01bd f4e8 ac3a
00000160: a672 c0bc f81a 9dbc 75e4 be3c d252 fa3c
00000170: 509b 163c 1edd 083d 5eac 9ebc 18a7 82bc
00000180: 6f1e 7c3c 4e21 e2bc f7ea 883c 0826 193d
00000190: 0d4a a43c 7477 04bd f12f d1bb fc4e 42bc
000001a0: b561 c8bc 7bb2 d5bc 20a8 413c 4ecd 34bc
000001b0: f97f d13c 17c9 8fbc 1ac5 abbc 6b14 ac3c
000001c0: 66d5 b23b 498f 9c3c 1e95 c4ba 3adb 723c
000001d0: 2b78 a43c ab1d d33b 9520 05bd c3bb a83c
000001e0: aa47 823c b3c4 803c 28e1 923c 8614 4a3b
000001f0: a53c b9bc 9215 48bc 748d d6bc ab96 453b
-0.018040504 -0.02611709 0.022105338 -0.031495675 0.013372433 -0.017353361 -0.04518199 0.012599593
0.024274103 -0.036465116 -0.018836202 -0.025832884 0.025024228 0.016316984 -0.024157442 -0.010014997
0.012652029 0.015617883 0.033632632 0.023438469 0.033582084 0.01602932 0.02065658 0.001256278
0.0049140356 0.01257439 -0.0056967135 -0.0032953059 -0.0050103 0.021928282 0.021570299 -0.026082497
0.02839937 0.034799412 -0.033829343 -0.0060261986 0.021212818 -0.0075390693 -0.024345795 0.026837377
0.010813581 0.016848084 0.0053157094 -0.026945012 0.00049434043 -0.02361645 -0.0077425013 -0.017646432
-0.012350914 -0.011738057 0.009030479 -0.034150787 -0.03443789 0.017364804 -0.015920019 -0.03461235
0.020976996 0.025130218 0.024623077 0.023065357 -0.010943817 -0.022793386 -0.017289763 0.010171814
0.024490772 0.016831756 -0.032211162 0.006513419 -0.018545471 -0.007629023 0.020439632 -0.032829203
0.022144897 0.014797848 -0.020529203 -0.0192637 0.019447796 0.01987988 -0.02635463 0.021643573
-0.034235816 -0.03438704 0.01642385 0.002183199 0.0034847872 0.00070106616 -0.03161192 0.0013191984
-0.023492169 -0.019177899 0.023302296 0.03055707 0.009192303 0.033414 -0.0193693 -0.015948817
0.015388115 -0.027603772 0.016713602 0.037389785 0.020054841 -0.032340482 -0.006383889 -0.011859652
-0.024460653 -0.026086083 0.011819869 -0.011035277 0.025573717 -0.017551942 -0.020968009 0.02100583
0.005457568 0.019111292 -0.0014998054 0.0148227755 0.020076832 0.0064427457 -0.032501776 0.020597344
0.015903313 0.015718793 0.017929628 0.0030834987 -0.022611925 -0.012212174 -0.026190497 0.003014962

StatefulPartitionedCall/sequential_14/dense_30/BiasAdd/ReadVariableOp f4 [2]
00000000: d99b 55bc f49b 553c
-0.013037645 0.01303767

sequential_14/dense_29/MatMul;StatefulPartitionedCall/sequential_14/dense_29/MatMul f4 [128, 128]
00000000: 40ff 453e 2ebd a73e b198 96bd 9345 f83e
00000010: d5fd c2bd 2f9c bd3d 06a1 7c3e 1c2e 2a3e
00000020: 7c7a 08be e875 35be 03ef 0c3e 5b09 b83e
00000030: 9e26 65be 96bf d6bc b734 bdbc df53 a3bd
00000040: 01e5 973d 0c43 503e 1bab 853d 333a 2bbe
00000050: 5c00 243d bce3 8d3e a48f 0e3d c6ed 1cbc
00000060: 8c02 383e 5083 1abd 1aec 9cbe b4e0 563e
00000070: 007f 1bbe 8000 81be b93e f43d 1159 02bd
00000080: 13a5 633d 6508 04be 7e00 7f3d 2f43 133e
00000090: 3ae6 66be 7e5f 22be c5ac b43d 096b 6a3d
000000a0: 8252 51bd 93fc 1a3d 1681 1cbe 531d 40be
000000b0: 9d67 e6bc 2dce 18be 0bcb e5bc a1fb e33c
000000c0: f307 34be ee29 0ebe 44de 1e3d 0daf 713d
000000d0: 83c6 053e 8078 8b3c 1d9f e4bd ecc7 313e
000000e0: e8ee 04be eb96 0a3e 3dad 87bc 2fb9 f0bd
000000f0: d3e8 9abc 3000 c73d 9f67 933d 6166 a63d
00000100: e93a 22be 1855 3fbd a6d2 6c3d 8f65 c73d
00000110: 8741 cabc 0d0b bebd 8ac2 42be dcdc 263e
00000120: 05c9 55be 5a32 f53b 2f6d 773b 3d0a 56be
00000130: ecfc 4d3e 9f62 5b3d 05f4 81bd 1ec0 7bbd
00000140: bf12 9b3c d8be 2d3e 2dd3 143d 9f4f 8bbc
00000150: 4138 ebbc 02d0 133e fa11 e8bd 3551 a6bd
00000160: 49c7 1abe cf24 333d faf2 25bd 3c6e 21be
00000170: 7919 5abd dfa9 1b3e 1cdf 1a3c 46de 633e
00000180: 5b8c 073e 88e0 22be c6f5 31bd a38d f63c
00000190: 7369 113d c485 a3bc 9931 583e 2530 acbd
000001a0: 0072 1e3e deee 313d 08fc 9a3d 35a1 e3bb
000001b0: 9ee2 303e 2032 3dbe 5542 35be a563 1f3e
000001c0: 3a83 9ebb 2ac0 f63d 870a fcbb 092b a3bc
000001d0: a3a2 433d 786f 31be 98ad 8e3d 5bff 4b3d
000001e0: c29c 893e cc58 33be 6134 423d 728a 9abc
000001f0: 172b b4bd 89e6 023e 1b86 e73d b2b0 06be
00000200: b560 a13e b552 ca3e a02e 91be 1807 b63e
00000210: cec8 6dbe b0f4 963e e669 433e e660 5c3e
00000220: 5533 f0bd 2d10 b8bc aef1 da3e 0410 563e
00000230: dad9 acbc aaf5 04be 709c 663d 167a bd3d
00000240: ab6a c5bc 6355 cd3e f07e d9bd 18a7 b6be
00000250: 6a0e 373d 042b 163e 8123 c43d dbd1 48be
00000260: fcf0 193e 9a31 df3c a140 4ebe 26dc acbd
00000270: c26b 273d 4a5c 9d3c 48ff c13d c8c0 9bb9
00000280: 02d6 0abe 507f 38be 1241 3ebe 1e5f 513e
00000290: af91 3ebe febb 973d 3843 623d 4dd8 1e3e
000002a0: 045e fc3b 8387 42be 3c49 88be 17f1 2bbe
000002b0: 97b7 443d 3680 81bd e94f 5fbe ae24 f83d
000002c0: 4e40 febd 9326 c5bb 67b3 f03d 4df0 8dbd
000002d0: f49d c23d 9ca7 92bd d54d f4bd 872c 0a3e
000002e0: 4693 a93c bd7c 073e 72dd 0dbc 7462 7abd
000002f0: 5c8d 633d 01ce 1dbd c745 c63d aa68 bc3d
00000300: 6db2 17be 0b9f 0bbe d621 8ebd b5c9 cdbd
00000310: 3577 d13d 3e49 29bd 106f 6cbe 8aa2 253e
00000320: 4485 39bd 42f4 48be 20a5 b93d e235 72bd
00000330: 8b23 c6bb dbc1 2dbd beac c03c 5d06 f8bd
00000340: 5790 c43d 6b5f 133d 8298 48bd a5aa 2dbd
00000350: c6c8 f93c ff47 b43c dee1 113e d5d8 06be
00000360: a262 5f3b a21d 89bd 78c5 183e 67ae fabd
00000370: 21b9 b83d 4c02 323e 6458 273e 29a1 153e
00000380: a17a 4b3b cb41 36bd 5731 2bbc 1a0a fcbd
00000390: 0716 a83c de36 343e 098a e13d 1690 5e3c
000003a0: 9d90 9dbd 02d5 0bba 1714 d13c cf83 f2bc
000003b0: f4e9 963c 9a71 a13b 437e 343c b98e aa3d
000003c0: 1eb7 1bbe 3d7a abbb f384 a63c 6eb4 c3bc
000003d0: 1f80 273e 4d81 febd 6b84 89bd b4ac 91bb
000003e0: 1718 4a3e e0f8 26bd 11a1 2d3c 0c15 793d
000003f0: a626 a338 9621 4b3d 9e0c bcbd 507a b73a
0.19335651 0.3276152 -0.07353342 0.4849058 -0.09521071 0.09258305 0.246708 0.16619152
-0.13327974 -0.17720759 0.1376305 0.35944638 -0.22378013 -0.026214402 -0.023096425 -0.079749815
0.07416726 0.20338076 0.065267764 -0.1672142 0.040039405 0.2771281 0.034804955 -0.009578174
0.17969722 -0.037722886 -0.3064888 0.20984155 -0.15185165 -0.25195694 0.11926026 -0.03182322
0.05557735 -0.12893827 0.06225633 0.14381097 -0.22548762 -0.1585674 0.08822016 0.057230983
-0.051104076 0.03783853 -0.15283617 -0.18761186 -0.028125579 -0.149224 -0.02805092 0.027829947
-0.17581157 -0.13883182 0.038786188 0.059004832 0.13064007 0.017025232 -0.11163161 0.1736142
-0.1298176 0.13534133 -0.016562099 -0.11754071 -0.018909847 0.09716833 0.071974985 0.08124996
-0.15842785 -0.04671201 0.057818078 0.09736168 -0.024689449 -0.092794515 -0.19019523 0.16295189
-0.20877464 0.007482809 0.0037754287 -0.20902343 0.20116013 0.05356085 -0.06345371 -0.061462514
0.018929837 0.16967332 0.036334205 -0.01700574 -0.028713347 0.14434817 -0.11331554 -0.08120958
-0.15115084 0.043736275 -0.040514924 -0.15764707 -0.05324695 0.1520152 0.0094526075 0.2225276
0.13237135 -0.15905964 -0.04344728 0.030096835 0.035500955 -0.019961245 0.2111267 -0.0840762
0.15473175 0.043440692 0.075676024 -0.0069467076 0.17273948 -0.18476152 -0.17701085 0.15565355
-0.004837421 0.12048371 -0.0076916846 -0.019917982 0.047762524 -0.17327678 0.06966704 0.049804073
0.2687741 -0.17514342 0.047413234 -0.018864844 -0.08797281 0.12783255 0.113048755 -0.13153341
0.31519094 0.39516225 -0.28355885 0.35552287 -0.23221132 0.29483557 0.19083366 0.21521339
-0.11728541 -0.02246865 0.42762512 0.20904547 -0.021099973 -0.12984338 0.056301534 0.09251802
-0.024098715 0.40104207 -0.106199145 -0.35674357 0.04469148 0.14664847 0.09577084 -0.19611304
0.15033334 0.027245332 -0.20141841 -0.084404275 0.04087425 0.019209046 0.09472519 -0.00029707537
-0.135582 -0.18017316 -0.1857951 0.2044644 -0.18610261 0.074089035 0.055239886 0.155122
0.007701637 -0.18997006 -0.26618373 -0.16791187 0.048026647 -0.063232824 -0.21807827 0.12116371
-0.12414609 -0.0060165613 0.11752968 -0.06930599 0.095027834 -0.07160875 -0.11928908 0.13493548
0.020700108 0.13231178 -0.008658754 -0.06112905 0.055554733 -0.03852654 0.09681278 0.091996506
-0.14814158 -0.13634889 -0.069400474 -0.10048238 0.10227815 -0.041329615 -0.23089242 0.16175285
-0.045293108 -0.19624427 0.09064698 -0.059133418 -0.0060467175 -0.042421203 0.02351987 -0.12110589
0.09597843 0.03597967 -0.048973568 -0.042399067 0.030491244 0.022006987 0.14246318 -0.13168652
0.003408589 -0.06695105 0.14919078 -0.12240296 0.090196855 0.17383689 0.16342312 0.14612259
0.0031048434 -0.04449634 -0.010448775 -0.12306614 0.020518316 0.17599055 0.11012656 0.013584157
-0.076935984 -0.000533417 0.025522275 -0.029603867 0.018422104 0.0049268724 0.011016431 0.083280034
-0.15206572 -0.005233078 0.020327067 -0.023889747 0.16357468 -0.12427006 -0.0671471 -0.0044456366
0.19735752 -0.04076469 0.010597483 0.060811087 7.7796445e-05 0.049592577 -0.09182094 0.0013998244

sequential_14/dense_30/MatMul;StatefulPartitionedCall/sequential_14/dense_30/MatMul f4 [2, 128]
00000000: f478 a33e 7802 843e b333 a6be 5828 443e
00000010: 9b52 b0be c818 9e3e 3d54 2c3e dea1 ccbe
00000020: 9fb9 aabd 629e 443e be14 b03e 43a5 a93e
00000030: 7ffb 59bd b823 96be e09b a53e aef0 b83e
00000040: 4893 82be 0be1 37be de6b 88be a64b 7dbe
00000050: a2a3 7fbe a827 89be 8f49 f5bd b959 b93e
00000060: 0654 02be c3b2 34be b11e 783e 2923 5d3e
00000070: 7e26 04be b4ee 79be ca20 c2be 0e98 953e
00000080: b767 c6bc 0d5e 11be 2ca9 8b3e 93cc c03e
00000090: 970d 5dbe 83ce de3d 9efa 283e 3956 42be
000000a0: e8c5 53be 5ace dabd 9ac4 e13e a6bc 893e
000000b0: 8b0e 95be 2315 c23e b823 f43d 8fe2 743e
000000c0: 456d b43e a917 b33e 2c0b b4bd ee49 ad3e
000000d0: 5376 843e 9a83 13be 380e 903e 71a5 2b3e
000000e0: e20b 0fbe 578a bfbe 523e cebe 83f3 babe
000000f0: 275e b13e 161c 053e 849d ab3e eeda 9ebe
00000100: 962d 84be 7879 78be 8c7f 7e3e bec2 953e
00000110: 8a8b 1dbc 3fc8 5b3e 4eb0 85be 2a42 963e
00000120: 245f 7abe 8c40 b3be 2edb a53e 950e 823e
00000130: 1009 64be 51e1 3cbe 746e b93e d51b 22bd
00000140: 3d7f 053e 19e4 9b3e eecf 49be 618d 18be
00000150: 94d7 d33b 28de 953e d396 6c3e 2a7a babe
00000160: 7705 cf3e ca77 ae3e 52cd 1cbe 90f6 24be
00000170: 82aa 90be 123c babe 523b b43d 2b75 ba3e
00000180: 83eb 9ebe bc0b 8d3e 87d3 84be 114a 36be
00000190: 5fb3 73be a7f0 7a3e 6597 6ebe 23d4 ad3e
000001a0: c161 aa3d 83c8 963e 60c7 b7be 27ba b83e
000001b0: de8c aebe 4286 703e d35b 9b3e 7c84 8cbd
000001c0: 108d 91be 39f8 73bc 4e1d 1a3e ac42 edbd
000001d0: 6944 70be adac 30be 0f38 543e 9641 46be
000001e0: 1c9f 95be 4c89 2bbe 5415 44be 3e1f af3e
000001f0: b85a 173e bd13 203e 3b6a 883e 0293 90be
00000200: 5515 68be c498 ffbd cd5f 643e 7b56 42be
00000210: d08e 2a3e 50af 49be 574a 47be 5881 a4bc
00000220: a3d1 9b3e ea10 9ebe 2ae9 83be 7341 30be
00000230: 4e9c a13e 70e1 2b3e a828 6cbe 6aba 37be
00000240: 34ef aa3d de1c 713e 929f 003e 0cce 9c3e
00000250: c536 a93e f75b 7a3e 270f 783e 64e6 a0be
00000260: 6986 9e3e 639d 753e 6e54 47be 1b4e 90be
00000270: b6e2 ac3e 382b 1d3e c339 673d f543 82be
00000280: 47c4 b23e 8c0c b63e 03cd 55bd edcf 30be
00000290: 4bc8 713e b198 9ebe 8cda 78be 55f5 393e
000002a0: e530 6d3e 3671 bf3e 1d90 a2be db16 8bbe
000002b0: 3ad1 143e 1bc9 acbe a5c0 bfbe 2482 15bd
000002c0: c9ea 5fbe 1c18 26be b796 9d3e 13ae 2cbe
000002d0: 6045 54be abe5 ab3e 0b83 73be cb95 75be
000002e0: 5916 ae3e c162 003e b234 893e 908c b13e
000002f0: 39df d7bd ec12 8ebe ae5a 9fbe 7eb8 a93d
00000300: 0f04 633e cf3d 833e 9b1e acbd 7945 c6be
00000310: 7c14 66be a437 a1be ef47 ab3e d856 1bbe
00000320: 6c67 2e3e 9773 9b3c f5c2 83be 188f 54be
00000330: 0033 9a3e f7ee 8f3e 2558 c2bd 4b0d c43e
00000340: f808 7cbe becf 23bd c412 893e ce7a c73e
00000350: d429 a23e a691 20be ac48 39be 6791 983d
00000360: cb27 d5bd a4f0 60be 050e c03e 4371 993e
00000370: 2451 043e 9c01 df3e 26dd 6bbe c47a 4cbe
00000380: 30d7 613e 9e43 95be 5925 093e 65ab 0c3e
00000390: e783 533e aefa 0ebe 6ac0 b23e 2b4b aebe
000003a0: 9ab2 bebe 296a a4be 76f9 193e 982c 2cbe
000003b0: efff 443e 30d5 94be dcda 72be fafc ae3e
000003c0: 6068 ac3e f08f 9d3e f840 a8be fe84 993e
000003d0: 7170 9c3e c60b 7c3e 92f2 2bbe 1aa6 a63e
000003e0: 2e31 963e 6fea 833e c417 b23e d28e 77be
000003f0: dbcb 79be d783 bebd 1b49 e8bd 0a6f 713e
0.31928217 0.25783134 -0.32461318 0.19156015 -0.34438023 0.30878282 0.1682901 -0.39967245
-0.08336186 0.19201043 0.34390825 0.33133897 -0.05321836 -0.29324126 0.32345486 0.36121124
-0.25502992 -0.17956941 -0.26644796 -0.24735889 -0.24964765 -0.26788068 -0.11976921 0.36201265
-0.12727365 -0.17646317 0.24230458 0.21595444 -0.12905309 -0.24407464 -0.3791564 0.2921757
-0.024219377 -0.14196034 0.27277505 0.37656078 -0.21587215 0.10879233 0.16501853 -0.18978204
-0.20680964 -0.1068389 0.44095308 0.2690174 -0.29112658 0.3790675 0.11920875 0.2391455
0.35239616 0.3497899 -0.08791193 0.33845466 0.25871524 -0.14405671 0.28135848 0.1676233
-0.13969377 -0.37410232 -0.40281922 -0.3651391 0.34642145 0.12998995 0.33518612 -0.31026405
-0.2581603 -0.24265087 0.24853343 0.2925014 -0.009615788 0.21463107 -0.26111072 0.29347354
-0.24450356 -0.35010183 0.32393783 0.2540175 -0.22269082 -0.18445326 0.36217082 -0.039577324
0.13036819 0.30447462 -0.19708225 -0.14897682 0.006464908 0.29271054 0.2310441 -0.3642133
0.40433857 0.34075767 -0.15312698 -0.16109681 -0.28255087 -0.36373955 0.08800377 0.36417517
-0.31039056 0.27548015 -0.25942633 -0.17801692 -0.23798893 0.24505864 -0.2329994 0.3395091
0.08319426 0.29449853 -0.358943 0.36079523 -0.34091848 0.23488715 0.30343494 -0.06861207
-0.28427935 -0.014890724 0.15050241 -0.11584982 -0.23463596 -0.1725337 0.2072451 -0.19360957
-0.29222953 -0.16751593 -0.19148761 0.34203523 0.147807 0.1563253 0.26643547 -0.28237158
-0.22664388 -0.124803096 0.2230217 -0.18978302 0.16656041 -0.19695783 -0.19461952 -0.020081207
0.30433378 -0.3087228 -0.25763828 -0.17212467 0.31564564 0.16785216 -0.23062384 -0.17942205
0.083464056 0.23546168 0.12560871 0.3062595 0.33049598 0.24449144 0.2422453 -0.31425774
0.30961922 0.2398582 -0.19465801 -0.2818459 0.33766717 0.15348518 0.05645157 -0.25442472
0.34915373 0.35556448 -0.052197468 -0.17266817 0.23611562 -0.3097587 -0.24302119 0.18159993
0.23163183 0.3739106 -0.31750575 -0.27165875 0.14532939 -0.3374718 -0.37451664 -0.036501065
-0.21866907 -0.16220134 0.3077905 -0.16863279 -0.2072959 0.3357366 -0.23780458 -0.23982923
0.34001425 0.12537672 0.26798016 0.34677553 -0.10540623 -0.2774881 -0.3112387 0.08287142
0.22169517 0.25633094 -0.08404275 -0.38724878 -0.22468752 -0.31487763 0.33453318 -0.15169847
0.1703164 0.018976016 -0.25734678 -0.20757711 0.30117035 0.28112003 -0.094894685 0.38291392
-0.24612796 -0.03999304 0.2677213 0.3896088 0.31672537 -0.1568056 -0.18094128 0.07449608
-0.104079805 -0.21966797 0.37510696 0.29969224 0.12921578 0.43555915 -0.2303358 -0.19968706
0.22054744 -0.2915315 0.13393153 0.13737257 0.20655786 -0.13962814 0.34912425 -0.34041724
-0.37245637 -0.32112244 0.15036568 -0.16813886 0.19238256 -0.290689 -0.237163 0.3417738
0.33673382 0.30773878 -0.32862067 0.29984277 0.30554536 0.24613866 -0.16791752 0.325486
0.29334396 0.25764796 0.34783757 -0.24175575 -0.24394171 -0.0930249 -0.11342069 0.23577514
